enhance_epoch_154.pth (torch, 313225 bytes, 22 tensors)

conv0.weight f4 [64, 1, 3, 3]
0.093065575 -0.06246546 0.096172124 0.06384565 -0.07408703 0.038186505 0.101234466 0.046353877
0.029980093 -0.07739278 0.0064811707 -0.043295033 0.075467974 -0.055254534 -0.05984191 -0.058893975
-0.0030958503 0.043131247 -0.08352728 -0.002872996 -0.051069077 -0.043268315 0.052788317 -0.028313287
-0.082108036 0.09899598 -0.072814055 0.0893089 -0.06796364 -0.06718573 -0.08295803 -0.06910745
-0.014738314 -0.07989844 0.0086335465 0.05395004 0.01663427 0.005492963 -0.03575653 0.1004397
0.019245915 -0.03014329 -0.011629991 -0.064472824 -0.035717085 -0.012079485 -0.031099617 0.0039057434
0.01836314 -0.087257616 0.065206975 0.0891927 0.070529446 -0.09057533 0.08275762 0.047686115
0.09275676 -0.0046004727 -0.07133301 -0.09555246 -0.06938931 0.09726152 -0.090614624 0.014297463
0.014667682 -0.0030482933 -0.026788384 -0.0952539 -0.081676245 -0.026043363 0.07864538 -0.057096157
0.09841347 -0.044604808 0.029415905 0.02991268 -0.013804384 -0.0013632476 0.07320446 -0.045705944
-0.06192747 -0.05842363 -0.0009551048 0.10009022 -0.007206805 -0.08291639 -0.028679632 -0.007147841
0.10079925 0.0025410727 -0.065893635 0.07384676 0.07914573 -0.088728845 -0.07348306 0.047133848
0.080766335 0.07474849 -0.033662535 0.07085112 -0.042171754 0.042988405 -0.0897496 0.03417486
0.09014599 0.08132079 -0.069056004 -0.07285849 0.022849686 0.0761559 0.0004284978 -0.061656643
-0.045054387 -0.05615478 -0.011544608 0.07410009 -0.053122554 0.04458405 -0.047756787 -0.04664334
0.04465331 0.039080143 -0.0049065277 0.0076555535 0.053069413 -0.07262416 0.096498564 -0.09785818
0.009876296 -0.030764244 -0.09683611 -0.021674164 0.044430196 -0.08700141 0.057678506 -0.008877791
-0.04575041 0.08101787 -0.07764071 -0.10053319 0.09458573 -0.07296461 0.050286233 0.097416684
0.09631029 -0.04752743 -0.015768684 0.08828013 -0.04386265 -0.02524174 0.08310929 -0.0012319684
0.04898992 0.07929464 -0.039265122 -0.02222196 -0.08748701 -0.00801345 0.06368333 0.078153
0.09485723 0.045482308 -0.07432512 0.01207976 -0.0534364 -0.06281325 0.070059255 0.057474717
-0.07935579 -0.018245906 0.064919084 0.04311797 -0.072244145 0.0771523 0.08599755 0.085913256
0.056744963 -0.09852319 0.0156134665 0.06799929 0.033564582 0.055863768 0.10123171 -0.02636762
0.09033762 -0.059846144 -0.09069764 -0.08203772 0.06909773 -0.052208196 0.08063646 0.059260502
-0.08723411 -0.011351131 0.06322284 -0.018444039 -0.054098275 0.021161377 0.06550841 0.00026094168
0.08878574 -0.09844779 -0.069784984 0.044945717 0.07142791 -0.033915147 0.08745049 0.07759331
-0.042524256 -0.015671529 0.077349454 0.049150825 -0.08710117 0.005493842 -0.041406848 0.018141657
0.045184255 0.036066115 0.0010285154 0.011085533 0.03830993 0.09648368 0.0035144165 -0.05018704
-0.007854417 -0.08699449 0.07795018 -0.025371037 0.030270994 -0.07108132 -0.042002022 0.022749044
0.08963697 -0.0882836 -0.04527059 -0.087841086 0.09269425 -0.042759 -0.032565013 0.0282159
0.02042184 0.04098098 0.028778702 0.019086488 -0.06645051 0.09825075 0.009595178 0.08954485
0.06527823 -0.10058707 -7.801503e-05 -0.03563635 0.042050704 0.015250087 0.047869638 0.06465933
00000000: 2a99 be3d c8db 7fbd e4f5 c43d 82c1 823d
00000010: f1ba 97bd 7469 1c3d 0454 cf3d 90dd 3d3d
00000020: d098 f53c 1b80 9ebd 0060 d43b 2256 31bd
00000030: f48e 9a3d 9452 62bd ca1c 75bd cf3a 71bd
00000040: c0e3 4abb 64aa 303d 5a10 abbd e048 3cbb
00000050: cf2d 51bd 1e3a 31bd 9038 583d 44f1 e7bc
00000060: 4228 a8bd 68be ca3d 891f 95bd 96e7 b63d
00000070: 8530 8bbd ac98 89bd e6e5 a9bd 3588 8dbd
00000080: f878 71bc cba1 a3bd b873 0d3c b8fa 5c3d
00000090: 9844 883c 50fe b33b 7075 12bd 54b3 cd3d
000000a0: 9ca9 9d3c 10ef f6bc b88b 3ebc 540a 84bd
000000b0: 144c 12bd 08e9 45bc a0c4 febc 80f7 7f3b
000000c0: 4c6e 963c 1fb4 b2bd 3c8b 853d aaaa b63d
000000d0: be71 903d 8f7f b9bd d47c a93d 8452 433d
000000e0: 42f7 bd3d 90bf 96bb 0b17 92bd 02b1 c3bd
000000f0: fc1b 8ebd 0c31 c73d 2994 b9bd e83f 6a3c
00000100: b850 703c e0c5 47bb 5073 dbbc 7a14 c3bd
00000110: e045 a7bd e458 d5bc d410 a13d a9dd 69bd
00000120: 008d c93d 88b3 36bd a0f9 f03c 700b f53c
00000130: c82b 62bc 00af b2ba 38ec 953d 2836 3bbd
00000140: a9a7 7dbd 9e4d 6fbd 0060 7aba 1afc cc3d
00000150: 1027 ecbb 11d0 a9bd 8cf1 eabc 7038 eabb
00000160: d66f ce3d 2088 263b 3ef3 86bd f83c 973d
00000170: 2817 a23d 78b7 b5bd 497e 96bd 6c0f 413d
00000180: d268 a53d bc15 993d bae1 09bd 641a 913d
00000190: 4abc 2cbd 9c14 303d a3ce b7bd f0fa 0b3d
000001a0: 769e b83d 848b a63d 3c6d 8dbd d536 95bd
000001b0: 442f bb3c a0f7 9b3d 00a8 e039 ad8b 7cbd
000001c0: f38a 38bd 8e02 66bd 9825 3dbc cac1 973d
000001d0: 0997 59bd c49d 363d 9f9c 43bd 160d 3fbd
000001e0: 64e6 363d 8012 203d f0c6 a0bb 70db fa3b
000001f0: 505f 593d fabb 94bd 0aa1 c53d df69 c8bd
00000200: 30d0 213c 4c05 fcbc 0352 c6bd 048e b1bc
00000210: 70fc 353d cc2d b2bd 4c40 6c3d 2874 11bc
00000220: c864 3bbd b2ec a53d 1802 9fbd 58e4 cdbd
00000230: 2ab6 c13d 786e 95bd f0f8 4d3d 6682 c73d
00000240: 543e c53d 1fac 42bd 542d 81bc 36cc b43d
00000250: 52a9 33bd c4c7 cebc 3435 aa3d 007a a1ba
00000260: a8a9 483d 3a65 a23d 77d4 20bd d40a b6bc
00000270: 642c b3bd d84a 03bc 686c 823d ae0e a03d
00000280: 8244 c23d a84b 3a3d c537 98bd 30ea 453c
00000290: 20e0 5abd 3ca4 80bd 3a7b 8f3d 9c6a 6b3d
000002a0: 4a85 a2bd 7078 95bc 4cf4 843d 789c 303d
000002b0: bdf4 93bd 0602 9e3d 7c1f b03d 4af3 af3d
000002c0: 686d 683d 87c6 c9bd a0cf 7f3c 3643 8b3d
000002d0: 047b 093d 68d1 643d 9252 cf3d e800 d8bc
000002e0: ee02 b93d 3b21 75bd afbf b9bd 6403 a8bd
000002f0: 1c83 8d3d 43d8 55bd ba24 a53d 24bb 723d
00000300: cca7 b2bd 18fa 39bc fa7a 813d f417 97bc
00000310: 2796 5dbd a05a ad3c 4629 863d 00cf 8839
00000320: 4cd5 b53d ff9e c9bd 6eeb 8ebd 0019 383d
00000330: cc48 923d 9cea 0abd 3e19 b33d 3ee9 9e3d
00000340: ea2d 2ebd 9461 80bc 6469 9e3d 6052 493d
00000350: 1962 b2bd b005 b43b 3a9a 29bd d09d 943c
00000360: 2013 393d 10ba 133d 40cf 863a 18a0 353c
00000370: e0ea 1c3d 3c99 c53d 2052 663b ed90 4dbd
00000380: d0af 00bc 2b2a b2bd 58a4 9f3d ecd6 cfbc
00000390: e0fa f73c 1593 91bd 500a 2cbd 345c ba3c
000003a0: 9693 b73d 08ce b4bd a76d 39bd 07e6 b3bd
000003b0: 7cd6 bd3d 1024 2fbd e462 05bd 0825 e73c
000003c0: b44b a73c acdb 273d 50c1 eb3c 445b 9c3c
000003d0: 3417 88bd b037 c93d 1835 1d3c 4a63 b73d
000003e0: 98b0 853d 9800 cebd 009c a3b8 6cf7 11bd
000003f0: 5c3d 2c3d 80db 793c f412 443d 1c6c 843d

conv0.bias f4 [64]
0.1 0.1 0.1 0.1 0.1 0.1 0.1 0.1
0.1 0.1 0.1 0.1 0.1 0.1 0.1 0.1
0.1 0.1 0.1 0.1 0.1 0.1 0.1 0.1
0.1 0.1 0.1 0.1 0.1 0.1 0.1 0.1
0.1 0.1 0.1 0.1 0.1 0.1 0.1 0.1
0.1 0.1 0.1 0.1 0.1 0.1 0.1 0.1
0.1 0.1 0.1 0.1 0.1 0.1 0.1 0.1
0.1 0.1 0.1 0.1 0.1 0.1 0.1 0.1
00000000: cdcc cc3d cdcc cc3d cdcc cc3d cdcc cc3d
00000010: cdcc cc3d cdcc cc3d cdcc cc3d cdcc cc3d
00000020: cdcc cc3d cdcc cc3d cdcc cc3d cdcc cc3d
00000030: cdcc cc3d cdcc cc3d cdcc cc3d cdcc cc3d
00000040: cdcc cc3d cdcc cc3d cdcc cc3d cdcc cc3d
00000050: cdcc cc3d cdcc cc3d cdcc cc3d cdcc cc3d
00000060: cdcc cc3d cdcc cc3d cdcc cc3d cdcc cc3d
00000070: cdcc cc3d cdcc cc3d cdcc cc3d cdcc cc3d
00000080: cdcc cc3d cdcc cc3d cdcc cc3d cdcc cc3d
00000090: cdcc cc3d cdcc cc3d cdcc cc3d cdcc cc3d
000000a0: cdcc cc3d cdcc cc3d cdcc cc3d cdcc cc3d
000000b0: cdcc cc3d cdcc cc3d cdcc cc3d cdcc cc3d
000000c0: cdcc cc3d cdcc cc3d cdcc cc3d cdcc cc3d
000000d0: cdcc cc3d cdcc cc3d cdcc cc3d cdcc cc3d
000000e0: cdcc cc3d cdcc cc3d cdcc cc3d cdcc cc3d
000000f0: cdcc cc3d cdcc cc3d cdcc cc3d cdcc cc3d

bn0.weight f4 [64]
1.0 1.0 1.0 1.0 1.0 1.0 1.0 1.0
1.0 1.0 1.0 1.0 1.0 1.0 1.0 1.0
1.0 1.0 1.0 1.0 1.0 1.0 1.0 1.0
1.0 1.0 1.0 1.0 1.0 1.0 1.0 1.0
1.0 1.0 1.0 1.0 1.0 1.0 1.0 1.0
1.0 1.0 1.0 1.0 1.0 1.0 1.0 1.0
1.0 1.0 1.0 1.0 1.0 1.0 1.0 1.0
1.0 1.0 1.0 1.0 1.0 1.0 1.0 1.0
00000000: 0000 803f 0000 803f 0000 803f 0000 803f
00000010: 0000 803f 0000 803f 0000 803f 0000 803f
00000020: 0000 803f 0000 803f 0000 803f 0000 803f
00000030: 0000 803f 0000 803f 0000 803f 0000 803f
00000040: 0000 803f 0000 803f 0000 803f 0000 803f
00000050: 0000 803f 0000 803f 0000 803f 0000 803f
00000060: 0000 803f 0000 803f 0000 803f 0000 803f
00000070: 0000 803f 0000 803f 0000 803f 0000 803f
00000080: 0000 803f 0000 803f 0000 803f 0000 803f
00000090: 0000 803f 0000 803f 0000 803f 0000 803f
000000a0: 0000 803f 0000 803f 0000 803f 0000 803f
000000b0: 0000 803f 0000 803f 0000 803f 0000 803f
000000c0: 0000 803f 0000 803f 0000 803f 0000 803f
000000d0: 0000 803f 0000 803f 0000 803f 0000 803f
000000e0: 0000 803f 0000 803f 0000 803f 0000 803f
000000f0: 0000 803f 0000 803f 0000 803f 0000 803f

bn0.bias f4 [64]
0.0 0.0 0.0 0.0 0.0 0.0 0.0 0.0
0.0 0.0 0.0 0.0 0.0 0.0 0.0 0.0
0.0 0.0 0.0 0.0 0.0 0.0 0.0 0.0
0.0 0.0 0.0 0.0 0.0 0.0 0.0 0.0
0.0 0.0 0.0 0.0 0.0 0.0 0.0 0.0
0.0 0.0 0.0 0.0 0.0 0.0 0.0 0.0
0.0 0.0 0.0 0.0 0.0 0.0 0.0 0.0
0.0 0.0 0.0 0.0 0.0 0.0 0.0 0.0
00000000: 0000 0000 0000 0000 0000 0000 0000 0000
00000010: 0000 0000 0000 0000 0000 0000 0000 0000
00000020: 0000 0000 0000 0000 0000 0000 0000 0000
00000030: 0000 0000 0000 0000 0000 0000 0000 0000
00000040: 0000 0000 0000 0000 0000 0000 0000 0000
00000050: 0000 0000 0000 0000 0000 0000 0000 0000
00000060: 0000 0000 0000 0000 0000 0000 0000 0000
00000070: 0000 0000 0000 0000 0000 0000 0000 0000
00000080: 0000 0000 0000 0000 0000 0000 0000 0000
00000090: 0000 0000 0000 0000 0000 0000 0000 0000
000000a0: 0000 0000 0000 0000 0000 0000 0000 0000
000000b0: 0000 0000 0000 0000 0000 0000 0000 0000
000000c0: 0000 0000 0000 0000 0000 0000 0000 0000
000000d0: 0000 0000 0000 0000 0000 0000 0000 0000
000000e0: 0000 0000 0000 0000 0000 0000 0000 0000
000000f0: 0000 0000 0000 0000 0000 0000 0000 0000

bn0.running_mean f4 [64]
0.1396627 0.079380006 0.074666314 0.07254787 0.09571827 0.10311963 0.09869855 0.07824017
0.10759049 0.102158256 0.11120448 0.105455846 0.09355865 0.10203986 0.08500022 0.10209262
0.12184584 0.1243989 0.09001176 0.13125226 0.110896796 0.10012131 0.1186519 0.10489845
0.12073417 0.08887981 0.10031074 0.10944155 0.1154162 0.12995295 0.1381557 0.10900275
0.0903852 0.07723421 0.088991106 0.12886047 0.111524984 0.0973487 0.079868145 0.10891968
0.09490434 0.15085876 0.098194554 0.10233637 0.11424777 0.13006169 0.08481858 0.09708053
0.11119167 0.10084925 0.09077755 0.07494535 0.12345243 0.090979494 0.08779362 0.08385148
0.13770665 0.09198151 0.119032875 0.103595056 0.099552006 0.121371344 0.11986096 0.07584245
00000000: bd03 0f3e fc91 a23d a7ea 983d fa93 943d
00000010: f107 c43d 6230 d33d 7722 ca3d 623c a03d
00000020: 6758 dc3d 5938 d13d 2dbf e33d 3cf9 d73d
00000030: ad9b bf3d 46fa d03d 9814 ae3d f015 d13d
00000040: 508a f93d dac4 fe3d 1658 b83d fe66 063e
00000050: dc1d e33d 670c cd3d c4ff f23d 00d5 d63d
00000060: 7a43 f73d 9e06 b63d b86f cd3d e422 e03d
00000070: 545f ec3d 6312 053e b078 0d3e d53c df3d
00000080: e01b b93d f82c 9e3d f840 b63d 00f4 033e
00000090: 3667 e43d c15e c73d e991 a33d 4811 df3d
000000a0: 355d c23d b87a 1a3e 3a1a c93d bb95 d13d
000000b0: bcfa e93d e42e 053e 5db5 ad3d 28d2 c63d
000000c0: 75b8 e33d 0d8a ce3d 95e9 b93d f37c 993d
000000d0: a1d4 fc3d 7553 ba3d 24cd b33d 53ba ab3d
000000e0: f902 0d3e cd60 bc3d 82c7 f33d a529 d43d
000000f0: ece1 cb3d 8a91 f83d aa79 f53d 4953 9b3d

bn0.running_var f4 [64]
0.00040163237 0.00010891317 0.00016382006 0.00019337409 5.328893e-06 2.8178504e-06 1.7076312e-06 0.00012164451
1.5419428e-05 1.5171958e-06 3.2518627e-05 7.87133e-06 1.0868426e-05 1.6475592e-06 5.829081e-05 3.2817677e-06
0.00012246778 0.00015261995 2.6312991e-05 0.0002508906 3.2078886e-05 1.3013159e-06 8.90758e-05 6.8179506e-06
0.0001104833 3.1915028e-05 8.2220134e-07 2.396695e-05 6.0713315e-05 0.0002293625 0.00037272164 2.0864358e-05
2.4414463e-05 0.00013396557 3.138506e-05 0.00021439895 3.458929e-05 2.7961428e-06 0.00010465884 2.0869717e-05
6.968732e-06 0.00066263427 1.8400362e-06 1.5644126e-06 5.237074e-05 0.00023157995 5.9471568e-05 2.384679e-06
3.331376e-05 9.628134e-07 2.3823197e-05 0.0001607004 0.00014101209 2.1802798e-05 3.8300008e-05 6.7801186e-05
0.00036497953 1.6860962e-05 9.3461735e-05 4.4331346e-06 3.926584e-07 0.000117417156 0.000101582846 0.00014969472
00000000: 2f92 d239 5068 e438 1dc7 2b39 76c4 4a39
00000010: d8ce b236 4d1a 3d36 c331 e535 661b ff38
00000020: f858 8137 73a2 cb35 9c64 0838 1b0f 0437
00000030: 8957 3637 b421 dd35 487d 7438 573c 5c36
00000040: b26a 0039 9b08 2039 b8ba dc37 f789 8339
00000050: 718c 0638 e0a8 ae35 35ce ba38 c0c5 e436
00000060: 45b3 e738 80dc 0538 3fb5 5c35 a20c c937
00000070: 6da6 7e38 0781 7039 da69 c339 de05 af37
00000080: a9cd cc37 1c79 0c39 74a3 0338 48d0 6039
00000090: f813 1138 5ea5 3b36 497c db38 6011 af37
000000a0: f4d4 e936 a2b4 2d3a 2af7 f635 cff8 d135
000000b0: a7a8 5b38 45d4 7239 1c71 7938 7908 2036
000000c0: 61ba 0b38 043a 8135 edd7 c737 af81 2839
000000d0: a5dc 1339 27e5 b637 52a4 2038 7c30 8e38
000000e0: b95a bf39 a470 8d37 e300 c438 56c0 9436
000000f0: 8fce d234 db3d f638 e008 d538 5ff7 1c39

conv1.weight f4 [64, 64, 3, 3]
0.018468365 0.017375387 -0.040077787 -0.05600179 0.040237583 0.0017823726 0.049092717 -0.05921035
-0.0014803782 -0.0027484372 0.02724798 0.05177275 0.0033150613 0.04535517 0.02385439 -0.05702699
-0.06902936 0.06633581 -0.07118677 -0.038468696 0.056650102 -0.06374552 0.008960411 0.010031216
0.021901093 0.03153684 0.057085574 0.0013165623 -0.0013826713 0.0022173747 0.020922236 -0.029781684
0.003209293 0.008801587 0.06514718 -0.034547105 -0.052143335 -0.026010502 -0.054683566 -0.017301511
0.055829868 0.006179668 -0.010228325 -0.02322971 -0.056619216 -0.0049295574 -0.063667245 0.03238088
0.02798874 -0.007137783 -0.06614121 -0.049534306 -0.022402965 0.034028493 0.04310982 0.06170672
0.0043859854 -0.025471833 0.03210181 -0.034950025 0.01165621 -0.041477274 -0.0014287829 0.0024493784
0.06824823 0.026499256 0.049483784 0.004989937 -0.06650215 0.037497364 0.021411203 0.04037364
-0.041694522 -0.03350203 0.01247406 0.06368965 -0.039690632 0.06258145 0.05570939 -0.030167814
0.052798226 -0.026306212 -0.06902556 0.059191376 -0.009873331 0.009128548 -0.066183485 -0.046916828
-0.061579693 0.048195757 0.065909326 0.03213615 -0.06609952 0.06060967 0.06293994 -0.0139444955
0.06230481 0.027958155 0.039335497 -0.03909758 0.04902871 0.037372515 -0.010703132 0.011240952
0.007894658 0.059343144 -0.009436458 -0.016916245 -0.021364309 0.0046892613 -0.04407401 0.041548215
0.0322074 0.040851355 -0.07079671 0.042076893 -0.03671338 -0.063087806 -0.010136649 0.040946946
0.042456843 0.001467593 0.06553525 0.06427984 -0.027919665 -0.046950005 0.040568657 -0.03029041
0.06327461 -0.07054276 0.02431491 -0.022026401 0.050033413 0.0035443678 0.04342503 0.00013431162
0.023076884 -0.04882534 -0.008220255 0.0120361 -0.018076848 -0.056571502 -0.020409193 -0.009654656
0.056781515 0.042861864 -0.008607775 -0.06977357 0.054444447 0.030280963 -0.023352008 0.013319097
-0.05568144 0.020040847 -0.059784982 -0.0028379336 -0.007964976 0.06928426 0.011145517 0.01028242
-0.03652717 0.046000995 0.05423531 -0.029054262 -0.04316625 0.04580853 -0.009144194 -0.055964142
-0.0043718666 -0.03139197 -0.0022472441 -0.054448914 -0.013269257 -0.02446894 0.029411577 0.0004852265
0.06892626 0.044617347 -0.048812665 0.018708713 0.034855053 0.04631377 -0.0690092 -0.03518072
0.0014775097 0.04230819 0.02057118 0.03531163 0.008425094 0.0035885423 -0.0074929595 0.03877736
0.046408176 -0.05913891 -0.00021006167 0.018740594 -0.045289777 0.047978587 -0.048054196 0.042541005
-0.05406095 0.039653562 -0.033247076 -0.052783784 -0.05489546 0.0028618202 -0.029728483 0.02717001
-0.034878086 0.052942723 -0.04790148 0.032809056 -0.04869633 -0.009265728 -0.003176093 0.049833253
-0.06236525 0.030684605 -0.0023410916 -0.021856386 0.057748243 0.0551852 0.017469108 -0.033717483
0.07101382 0.04023043 -0.0063729733 0.06483455 -0.00949429 0.06477581 -0.05593976 -0.014536612
0.034230627 0.03003233 0.06658794 -0.07122971 -0.03588959 -0.021489881 0.0012016669 0.06443602
0.045091093 -0.016956337 -0.031056482 -0.013903812 0.0015176535 -0.044452224 -0.062746234 0.03189815
0.02158659 0.0020504147 -0.03942802 -0.041459363 0.06853753 0.059895426 -0.02621901 -0.0031020865
00000000: f84a 973c d456 8e3c 9b28 24bd 2262 65bd
00000010: 2ad0 243d 809e e93a 7215 493d 8d86 72bd
00000020: 4009 c2ba 201f 34bb 2837 df3c aa0f 543d
00000030: 8041 593b 58c6 393d 486a c33c 2295 69bd
00000040: 445f 8dbd 12db 873d 5fca 91bd 5a91 1dbd
00000050: f009 683d 038d 82bd b0ce 123c f859 243c
00000060: ec69 b33c c62c 013d 90d2 693d 8090 ac3a
00000070: c03a b5ba 6051 113b 1c65 ab3c b8f8 f3bc
00000080: 0053 523b 8834 103c e26b 853d 4481 0dbd
00000090: 4094 55bd fa13 d5bc e0fb 5fbd e6bb 8dbc
000000a0: dcad 643d d07e ca3b b494 27bc 3c4c bebc
000000b0: 8de9 67bd 2088 a1bb f963 82bd d0a1 043d
000000c0: a448 e53c 10e4 e9bb 0b75 87bd 7ce4 4abd
000000d0: 6c86 b7bc 7661 0b3d ec93 303d 30c0 7c3d
000000e0: 50b8 8f3b 4eaa d0bc 307d 033d c227 0fbd
000000f0: b0f9 3e3c 13e4 29bd 0046 bbba c085 203b
00000100: bac5 8b3d f814 d93c 82af 4a3d a082 a33b
00000110: 4732 88bd d696 193d 8c66 af3c d45e 253d
00000120: e0c7 2abd 6d39 09bd 0060 4c3c b86f 823d
00000130: a592 22bd b42a 803d 882f 643d 7e22 f7bc
00000140: f442 583d 2080 d7bc 465d 8dbd a872 723d
00000150: c0c3 21bc e88f 153c 358b 87bd dc2b 40bd
00000160: fd3a 7cbd ea68 453d 78fb 863d 32a1 033d
00000170: 2f5f 87bd d841 783d a8e6 803d 7477 64bc
00000180: 5433 7f3d 8008 e53c 421e 213d c924 20bd
00000190: 54d2 483d ec13 193d 305c 2fbc f82b 383c
000001a0: 9858 013c cc11 733d 609b 1abc f093 8abc
000001b0: 3404 afbc 60a8 993b f386 34bd 762e 2a3d
000001c0: e8eb 033d c053 273d defd 90bd d258 2c3d
000001d0: c560 16bd 2e34 81bd 3014 26bc fcb7 273d
000001e0: 3ae7 2d3d 405c c03a 5837 863d 26a5 833d
000001f0: c8b7 e4bc a64e 40bd 522b 263d 9823 f8bc
00000200: 1e96 813d b978 90bd 1030 c73c b670 b4bc
00000210: d6ef 4c3d a048 683b 72de 313d 00d6 0c39
00000220: bc0b bd3c 14fd 47bd 40ae 06bc 1033 453c
00000230: e615 94bc 85b7 67bd 2e31 a7bc 902e 1ebc
00000240: bc93 683d ec8f 2f3d a007 0dbc 72e5 8ebd
00000250: 2401 5f3d c80f f83c b64c bfbc 5838 5a3c
00000260: 3912 64bd b42c a43c 19e1 74bd a0fc 39bb
00000270: 887f 02bc e8e4 8d3d b09b 363c 9877 283c
00000280: 849d 15bd 8a6b 3c3d d825 5e3d 3403 eebc
00000290: 18cf 30bd baa1 3b3d 88d1 15bc a83a 65bd
000002a0: e041 8fbb de94 00bd 8046 13bb d305 5fbd
000002b0: 4c67 59bc 1673 c8bc 8cf0 f03c 0066 fe39
000002c0: 3629 8d3d aec0 363d caef 47bd 0443 993c
000002d0: 2cc4 0e3d 82b3 3d3d b254 8dbd a919 10bd
000002e0: 00a9 c13a 5a4b 2d3d e484 a83c eea2 103d
000002f0: 6809 0a3c c02d 6b3b 8087 f5bb 02d5 1e3d
00000300: 8016 3e3d a43b 72bd 0044 5cb9 e085 993c
00000310: c681 39bd 3285 443d 7ad4 44bd 7a3f 2e3d
00000320: 046f 5dbd c66b 223d 162e 08bd cf33 58bd
00000330: 10da 60bd 608d 3b3b 2689 f3bc a493 de3c
00000340: 53dc 0ebd 78da 583d 5834 44bd ca62 063d
00000350: ce75 47bd 48cf 17bc 0026 50bb f41d 4c3d
00000360: b472 7fbd 485e fb3c 006d 19bb 2a0c b3bc
00000370: 6c89 6c3d e009 623d 601b 8f3c 581b 0abd
00000380: b26f 913d aac8 243d 60d4 d0bb fac7 843d
00000390: f08d 1bbc 2ea9 843d 1721 65bd f82a 6ebc
000003a0: 6a35 0c3d 5c06 f63c 425f 883d e2e0 91bd
000003b0: f600 13bd 8c0b b0bc 4081 9d3a 08f7 833d
000003c0: 70b1 383d 04e8 8abc 2a6a febc d0cc 63bc
000003d0: 00ec c63a 8913 36bd 1981 80bd a2a7 023d
000003e0: 5cd6 b03c 4060 063b 477f 21bd 4bd1 29bd
000003f0: 685d 8c3d e854 753d 40c9 d6bc 604c 4bbb

conv1.bias f4 [64]
0.1 0.1 0.1 0.1 0.1 0.1 0.1 0.1
0.1 0.1 0.1 0.1 0.1 0.1 0.1 0.1
0.1 0.1 0.1 0.1 0.1 0.1 0.1 0.1
0.1 0.1 0.1 0.1 0.1 0.1 0.1 0.1
0.1 0.1 0.1 0.1 0.1 0.1 0.1 0.1
0.1 0.1 0.1 0.1 0.1 0.1 0.1 0.1
0.1 0.1 0.1 0.1 0.1 0.1 0.1 0.1
0.1 0.1 0.1 0.1 0.1 0.1 0.1 0.1
00000000: cdcc cc3d cdcc cc3d cdcc cc3d cdcc cc3d
00000010: cdcc cc3d cdcc cc3d cdcc cc3d cdcc cc3d
00000020: cdcc cc3d cdcc cc3d cdcc cc3d cdcc cc3d
00000030: cdcc cc3d cdcc cc3d cdcc cc3d cdcc cc3d
00000040: cdcc cc3d cdcc cc3d cdcc cc3d cdcc cc3d
00000050: cdcc cc3d cdcc cc3d cdcc cc3d cdcc cc3d
00000060: cdcc cc3d cdcc cc3d cdcc cc3d cdcc cc3d
00000070: cdcc cc3d cdcc cc3d cdcc cc3d cdcc cc3d
00000080: cdcc cc3d cdcc cc3d cdcc cc3d cdcc cc3d
00000090: cdcc cc3d cdcc cc3d cdcc cc3d cdcc cc3d
000000a0: cdcc cc3d cdcc cc3d cdcc cc3d cdcc cc3d
000000b0: cdcc cc3d cdcc cc3d cdcc cc3d cdcc cc3d
000000c0: cdcc cc3d cdcc cc3d cdcc cc3d cdcc cc3d
000000d0: cdcc cc3d cdcc cc3d cdcc cc3d cdcc cc3d
000000e0: cdcc cc3d cdcc cc3d cdcc cc3d cdcc cc3d
000000f0: cdcc cc3d cdcc cc3d cdcc cc3d cdcc cc3d

bn1.weight f4 [64]
1.0 1.0 1.0 1.0 1.0 1.0 1.0 1.0
1.0 1.0 1.0 1.0 1.0 1.0 1.0 1.0
1.0 1.0 1.0 1.0 1.0 1.0 1.0 1.0
1.0 1.0 1.0 1.0 1.0 1.0 1.0 1.0
1.0 1.0 1.0 1.0 1.0 1.0 1.0 1.0
1.0 1.0 1.0 1.0 1.0 1.0 1.0 1.0
1.0 1.0 1.0 1.0 1.0 1.0 1.0 1.0
1.0 1.0 1.0 1.0 1.0 1.0 1.0 1.0
00000000: 0000 803f 0000 803f 0000 803f 0000 803f
00000010: 0000 803f 0000 803f 0000 803f 0000 803f
00000020: 0000 803f 0000 803f 0000 803f 0000 803f
00000030: 0000 803f 0000 803f 0000 803f 0000 803f
00000040: 0000 803f 0000 803f 0000 803f 0000 803f
00000050: 0000 803f 0000 803f 0000 803f 0000 803f
00000060: 0000 803f 0000 803f 0000 803f 0000 803f
00000070: 0000 803f 0000 803f 0000 803f 0000 803f
00000080: 0000 803f 0000 803f 0000 803f 0000 803f
00000090: 0000 803f 0000 803f 0000 803f 0000 803f
000000a0: 0000 803f 0000 803f 0000 803f 0000 803f
000000b0: 0000 803f 0000 803f 0000 803f 0000 803f
000000c0: 0000 803f 0000 803f 0000 803f 0000 803f
000000d0: 0000 803f 0000 803f 0000 803f 0000 803f
000000e0: 0000 803f 0000 803f 0000 803f 0000 803f
000000f0: 0000 803f 0000 803f 0000 803f 0000 803f

bn1.bias f4 [64]
0.0 0.0 0.0 0.0 0.0 0.0 0.0 0.0
0.0 0.0 0.0 0.0 0.0 0.0 0.0 0.0
0.0 0.0 0.0 0.0 0.0 0.0 0.0 0.0
0.0 0.0 0.0 0.0 0.0 0.0 0.0 0.0
0.0 0.0 0.0 0.0 0.0 0.0 0.0 0.0
0.0 0.0 0.0 0.0 0.0 0.0 0.0 0.0
0.0 0.0 0.0 0.0 0.0 0.0 0.0 0.0
0.0 0.0 0.0 0.0 0.0 0.0 0.0 0.0
00000000: 0000 0000 0000 0000 0000 0000 0000 0000
00000010: 0000 0000 0000 0000 0000 0000 0000 0000
00000020: 0000 0000 0000 0000 0000 0000 0000 0000
00000030: 0000 0000 0000 0000 0000 0000 0000 0000
00000040: 0000 0000 0000 0000 0000 0000 0000 0000
00000050: 0000 0000 0000 0000 0000 0000 0000 0000
00000060: 0000 0000 0000 0000 0000 0000 0000 0000
00000070: 0000 0000 0000 0000 0000 0000 0000 0000
00000080: 0000 0000 0000 0000 0000 0000 0000 0000
00000090: 0000 0000 0000 0000 0000 0000 0000 0000
000000a0: 0000 0000 0000 0000 0000 0000 0000 0000
000000b0: 0000 0000 0000 0000 0000 0000 0000 0000
000000c0: 0000 0000 0000 0000 0000 0000 0000 0000
000000d0: 0000 0000 0000 0000 0000 0000 0000 0000
000000e0: 0000 0000 0000 0000 0000 0000 0000 0000
000000f0: 0000 0000 0000 0000 0000 0000 0000 0000

bn1.running_mean f4 [64]
0.2002271 -0.3713291 -0.04182473 0.18995155 -0.05967255 -0.3675121 0.27068582 -0.61420715
0.076983646 0.074911274 -0.06365022 0.047788408 -0.3050608 0.07848327 0.48303056 -0.10935699
-0.104733124 0.0729011 0.29996216 0.022896137 -0.3546238 0.21149194 0.13986084 -0.2851337
0.077268496 0.100985415 0.3054046 0.10608349 -0.061324522 0.062982984 0.09551579 -0.17010942
0.43099 -0.09276082 0.35971 -0.1434006 -0.12290465 0.026038643 -0.44854525 0.32665932
0.51953083 -0.37207845 -0.09378268 0.26782167 0.28663462 0.2415622 0.038425524 0.09974417
0.26513967 0.37620813 0.18720308 0.09077284 -0.08821861 0.37460434 -0.19580431 0.31837577
0.15319902 -0.20944561 0.100169756 0.14135501 -0.14779668 -0.09383208 -0.26210615 0.06723532
00000000: 5508 4d3e d91e bebe 6850 2bbd a982 423e
00000010: 346b 74bd 8c2a bcbe 5597 8a3e ae3c 1dbf
00000020: 9aa9 9d3d 156b 993d 0c5b 82bd c7bd 433d
00000030: ee30 9cbe d6bb a03d c84f f73e 8ff6 dfbd
00000040: 527e d6bd 2c4d 953d a494 993e ae90 bb3c
00000050: 4091 b5be 5891 583e ae37 0f3e 0bfd 91be
00000060: f23e 9e3d 71d1 ce3d fe5d 9c3e 4d42 d93d
00000070: 6c2f 7bbd 39fd 803d c89d c33d 2a31 2ebe
00000080: b9aa dc3e 63f9 bdbd e92b b83e 9bd7 12be
00000090: 6fb5 fbbd fe4e d53c b9a7 e5be e43f a73e
000000a0: f9ff 043f 1181 bebe 2211 c0bd ec1f 893e
000000b0: c6c1 923e 155c 773e 1564 1d3d ac46 cc3d
000000c0: 63c0 873e 5a9e c03e 2ab2 3f3e 1ce7 b93d
000000d0: f5ab b4bd 24cc bf3e ed80 48be 2602 a33e
000000e0: 34e0 1c3e e978 56be cd25 cd3d 5ebf 103e
000000f0: 0358 17be 092b c0bd c732 86be acb2 893d

bn1.running_var f4 [64]
0.039117284 0.19132017 0.037107613 0.42215 0.054861434 0.5407469 0.035457682 1.6800346
0.22120471 0.23804101 0.019199459 0.007830015 0.11330526 0.022293055 0.10887685 0.08928434
0.17038614 0.014755472 0.7369084 0.023553686 0.14789063 0.044770215 0.31029946 0.55848134
0.020902326 0.19615231 0.041270107 0.1176396 0.023196135 0.03489662 0.14649493 0.18536195
0.4000221 0.5427392 0.32925582 1.2114512 0.09882843 0.023747567 0.46051016 0.031407606
2.311424 0.77090335 0.94055325 0.24689904 0.042787217 0.11267631 0.23125663 0.02787838
0.122417785 0.3449687 0.015116933 0.16612558 0.5694636 0.10959467 0.38149482 0.2613775
0.39391184 0.42443892 0.060040317 0.01942112 0.06871792 0.0367758 0.09193512 0.041944865
00000000: 7239 203d 6fe9 433e 27fe 173d 0b24 d83e
00000010: 62b6 603d 646e 0a3f 133c 113d 600b d73f
00000020: 7d83 623e 06c1 733e 2f48 9d3c 7749 003c
00000030: 970c e83d ed9f b63c d3fa de3d b5da b63d
00000040: b479 2e3e efc0 713c 07a6 3c3f a9f3 c03c
00000050: a470 173e f960 373d 92df 9e3e a2f8 0e3f
00000060: 5b3b ab3c 27dc 483e d80a 293d 08ed f03d
00000070: d205 be3c c2ef 0e3d c402 163e 86cf 3d3e
00000080: b2cf cc3e f5f0 0a3f 3894 a83e d510 9b3f
00000090: 8f66 ca3d 428a c23c fdc7 eb3e 43a5 003d
000000a0: 5fee 1340 ec59 453f 19c8 703f 1ad3 7c3e
000000b0: a641 2f3d d6c2 e63d 8ace 6c3e 3361 e43c
000000c0: 2db6 fa3d bd9f b03e 03ad 773c d31c 2a3e
000000d0: 5ec8 113f 2c73 e03d 4a53 c33e 46d3 853e
000000e0: d0ae c93e 0f50 d93e d6ec 753d 0a19 9f3c
000000f0: fbbb 8c3d 39a2 163d 7b48 bc3d 61ce 2b3d

conv2.weight f4 [64, 64, 3, 3]
-0.046548992 0.026194707 -0.029965173 0.07165903 0.04265278 -0.040825266 0.0638075 0.018293545
-0.017045096 0.04553768 -0.019794121 0.06651211 -0.02226127 -0.030157998 -0.067116275 0.014846258
0.037510887 0.062052265 -0.004940793 -0.03846509 -0.07161138 0.039494507 0.011595525 0.063739836
-0.013828397 -0.018853184 0.05909349 -0.060405985 -0.012969289 0.062491 -0.038070068 0.04310245
-0.05020242 0.0013696253 -0.025803298 0.010643683 -0.059895523 0.064379305 -0.06295955 -0.05239284
0.056921333 -0.025822721 -0.0065330714 -0.023128841 -0.02514733 -0.02839658 0.04514464 -0.02351318
0.0026224777 -0.06285224 0.004739985 -0.011700559 0.009488687 0.05479522 -0.035249565 0.071125776
0.008973494 -0.028410416 -0.021530524 -0.024422053 -0.017845374 -0.021844167 -0.027727261 -0.00038393587
0.012075022 -0.051094376 0.002918452 0.058964252 0.04537329 -0.015667595 -0.043276608 0.040892057
0.0008344203 0.052422427 -0.05985583 0.0033785924 -0.016045094 -0.002345547 -0.004659258 0.010717146
0.033708528 0.0031413361 -0.03374921 -0.068973675 -0.010130797 0.050904617 -0.02984326 0.016343497
-0.021904882 -0.014342137 -0.02717216 0.045138866 -0.067193344 -0.047970027 -0.04802058 0.041970477
0.051061578 -0.027393095 0.049642794 0.034884848 -0.054376863 -0.037622504 -0.03331525 -0.027824435
-0.030570943 0.049760483 -0.058680795 0.0041017234 -0.026422191 0.043495834 0.034200616 0.037039228
0.017718598 0.04521638 -0.024441883 -0.033508107 -0.00809183 -0.05759171 -0.023723759 -0.012801133
0.008290641 -0.009873208 -0.01814305 0.037816495 -0.06796014 -0.015243415 -0.033859022 -0.04854668
0.036521345 0.0328105 -0.061154146 0.061099276 0.013775587 0.0008747354 -0.043600146 0.03221237
0.07057257 0.061450124 0.015835486 0.037185244 0.025939189 -0.037330847 0.04797294 -0.05707165
-0.05185297 0.039462246 -0.024353169 0.004116684 0.05555232 0.044264346 -0.062107258 -0.07155573
0.027020521 0.05584261 0.04156465 0.015135765 -0.044337317 -0.014366277 -0.044922613 -0.044738658
-0.061494667 -0.0012249053 -0.047338456 -0.019882537 0.05233617 0.043529592 -0.00023228675 0.009607159
0.025948338 0.025214419 0.041004956 0.06870948 -0.015275642 -0.0698857 0.029565081 0.02534701
-0.040409643 0.05766067 -0.022100594 0.002801828 0.056797907 -0.04550372 0.05938524 0.047993854
0.054654047 -0.016622264 -0.043772407 -0.06578499 -0.012527887 -0.06428062 -0.06827544 0.06664443
-0.024404038 -0.040199555 -0.060840204 0.027073883 -0.05194913 0.032338284 -0.040894803 -0.034060765
0.05416675 0.045985818 -0.07105031 0.014205337 0.061272994 0.06339869 0.06486598 0.055274695
0.058989674 -0.034872495 -0.052541457 -0.054138985 0.002289474 -0.03344444 -0.012721397 -0.057867467
0.060992926 0.071286455 0.07205179 0.033879913 -0.063180834 -0.008296914 0.06283513 0.012443617
-0.027459573 0.05555515 -0.0014354214 0.017191544 -0.012850136 -0.05175917 -0.07012627 -0.05658271
-0.043104433 0.013371974 0.014255017 -0.004234433 -0.022635024 -0.038748637 0.029166616 -0.06433267
0.0017531738 -0.009935807 -0.06407736 -0.06868127 -0.027261805 0.044443145 0.050621323 0.058466747
0.022801884 -0.034878217 -0.070520744 -0.03204148 0.021847919 -0.029503666 0.015514977 -0.006919734
00000000: 28aa 3ebd 4896 d63c 8679 f5bc f8c1 923d
00000010: aeb4 2e3d 6538 27bd 82ad 823d 58dc 953c
00000020: 28a2 8bbc b885 3a3d 4827 a2bc 8037 883d
00000030: 445d b6bc e80d f7bc 4274 89bd b83d 733c
00000040: 04a5 193d 842a 7e3d 60e6 a1bb 928d 1dbd
00000050: fda8 92bd fec4 213d 28fb 3d3c 088a 823d
00000060: 8090 62bc fe71 9abc 040c 723d 446c 77bd
00000070: 247d 54bc 90f6 7f3d 5cef 1bbd 328c 303d
00000080: 0ea1 4dbd 0085 b33a 7061 d3bc d862 2e3c
00000090: 0255 75bd 4cd9 833d f0f0 80bd e099 56bd
000000a0: 5826 693d 2c8a d3bc 6013 d6bb b278 bdbc
000000b0: c601 cebc f29f e8bc 96e9 383d b69e c0bc
000000c0: e0dd 2b3b adb8 80bd e051 9b3b b4b3 3fbc
000000d0: 7076 1b3c f470 603d d961 10bd 64aa 913d
000000e0: 9005 133c f6bc e8bc c860 b0bc c210 c8bc
000000f0: 7630 92bc 8af2 b2bc 4824 e3bc 004b c9b9
00000100: 50d6 453c 5648 51bd 8043 3f3b 8084 713d
00000110: 58d9 393d 5459 80bc d042 31bd 6e7e 273d
00000120: 00bd 5a3a e6b8 563d 632b 75bd 606b 5d3b
00000130: 0071 83bc c0b7 19bb b0ac 98bb f896 2f3c
00000140: f411 0a3d e0de 4d3b 9d3c 0abd 1242 8dbd
00000150: a4fb 25bc 5c81 503d da79 f4bc cce2 853c
00000160: de71 b3bc 48fb 6abc 2698 debc 88e3 383d
00000170: aa9c 89bd 387c 44bd 3ab1 44bd 3ce9 2b3d
00000180: f225 513d 7c67 e0bc 3e56 4b3d 6ae3 0e3d
00000190: 46ba 5ebd 0e1a 1abd 9275 08bd 12f0 e3bc
000001a0: ea6f fabc a6d1 4b3d 465b 70bd c067 863b
000001b0: 5a73 d8bc b028 323d f215 0c3d 72b6 173d
000001c0: 9826 913c d034 393d 583a c8bc cc3f 09bd
000001d0: 9893 04bc 49e5 6bbd 5458 c2bc d8bb 51bc
000001e0: 78d5 073c 3cc3 21bc bca0 94bc 78e5 1a3d
000001f0: b02e 8bbd 84bf 79bc c2af 0abd e2d8 46bd
00000200: 6897 153d 4e64 063d c57c 7abd 3c43 7a3d
00000210: 00b3 613c 804e 653a 1196 32bd 1ef1 033d
00000220: 5a88 903d 20b3 7b3d 6cb9 813c 8e4f 183d
00000230: 6c7e d43c 3be8 18bd 467f 443d f6c3 69bd
00000240: c863 54bd 2aa3 213d 4c80 c7bc 40e5 863b
00000250: d48a 633d 884e 353d 2e64 7ebd d08b 92bd
00000260: 245a dd3c 38bb 643d b23f 2a3d 00fc 773c
00000270: 0c9b 35bd 8860 6bbc c600 38bd e23f 37bd
00000280: d5e1 7bbd 008d a0ba f8e5 41bd b4e0 a2bc
00000290: 745e 563d 164c 323d 0092 73b9 5867 1d3c
000002a0: 9c91 d43c 788e ce3c d0f4 273d 8eb7 8c3d
000002b0: b046 7abc 3c20 8fbd 7832 f23c 88a4 cf3c
000002c0: 9584 25bd 982d 6c3d 4e0c b5bc e09e 373b
000002d0: eca4 683d 1c62 3abd f03d 733d 3495 443d
000002e0: ecdc 5f3d 6a2b 88bc b24a 33bd 48ba 86bd
000002f0: c441 4dbc 8fa5 83bd fed3 8bbd e07c 883d
00000300: faea c7bc 4aa8 24bd 9433 79bd 0cca dd3c
00000310: 9cc8 54bd 2675 043d 4f81 27bd 4d83 0bbd
00000320: f4dd 5d3d a05b 3c3d d382 91bd 80bd 683c
00000330: 64f9 7a3d 2cd7 813d 74d8 843d b867 623d
00000340: 289f 713d 76d6 0ebd b635 57bd d7c0 5dbd
00000350: 000b 163b 0afd 08bd 686d 50bc 7006 6dbd
00000360: b8d3 793d a2fe 913d e48f 933d aac5 0a3d
00000370: f464 81bd c8ef 07bc b4af 803d 50e0 4b3c
00000380: e6f2 e0bc cc8d 633d c024 bcba 48d5 8c3c
00000390: 6089 52bc 6c01 54bd 5d9e 8fbd 46c3 67bd
000003a0: 468e 30bd 2016 5b3c e08d 693c 00c1 8abb
000003b0: 166d b9bc e4b6 1ebd d4ee ee3c d9c0 83bd
000003c0: c0ca e53a ccc9 22bc fe3a 83bd c4a8 8cbd
000003d0: 2654 dfbc 040a 363d 4e58 4f3d d47a 6f3d
000003e0: 04cb ba3c 76dc 0ebd 2e6d 90bd ed3d 03bd
000003f0: 68fa b23c acb1 f1bc 8832 7e3c f0be e2bb

conv2.bias f4 [64]
0.1 0.1 0.1 0.1 0.1 0.1 0.1 0.1
0.1 0.1 0.1 0.1 0.1 0.1 0.1 0.1
0.1 0.1 0.1 0.1 0.1 0.1 0.1 0.1
0.1 0.1 0.1 0.1 0.1 0.1 0.1 0.1
0.1 0.1 0.1 0.1 0.1 0.1 0.1 0.1
0.1 0.1 0.1 0.1 0.1 0.1 0.1 0.1
0.1 0.1 0.1 0.1 0.1 0.1 0.1 0.1
0.1 0.1 0.1 0.1 0.1 0.1 0.1 0.1
00000000: cdcc cc3d cdcc cc3d cdcc cc3d cdcc cc3d
00000010: cdcc cc3d cdcc cc3d cdcc cc3d cdcc cc3d
00000020: cdcc cc3d cdcc cc3d cdcc cc3d cdcc cc3d
00000030: cdcc cc3d cdcc cc3d cdcc cc3d cdcc cc3d
00000040: cdcc cc3d cdcc cc3d cdcc cc3d cdcc cc3d
00000050: cdcc cc3d cdcc cc3d cdcc cc3d cdcc cc3d
00000060: cdcc cc3d cdcc cc3d cdcc cc3d cdcc cc3d
00000070: cdcc cc3d cdcc cc3d cdcc cc3d cdcc cc3d
00000080: cdcc cc3d cdcc cc3d cdcc cc3d cdcc cc3d
00000090: cdcc cc3d cdcc cc3d cdcc cc3d cdcc cc3d
000000a0: cdcc cc3d cdcc cc3d cdcc cc3d cdcc cc3d
000000b0: cdcc cc3d cdcc cc3d cdcc cc3d cdcc cc3d
000000c0: cdcc cc3d cdcc cc3d cdcc cc3d cdcc cc3d
000000d0: cdcc cc3d cdcc cc3d cdcc cc3d cdcc cc3d
000000e0: cdcc cc3d cdcc cc3d cdcc cc3d cdcc cc3d
000000f0: cdcc cc3d cdcc cc3d cdcc cc3d cdcc cc3d

bn2.weight f4 [64]
1.0 1.0 1.0 1.0 1.0 1.0 1.0 1.0
1.0 1.0 1.0 1.0 1.0 1.0 1.0 1.0
1.0 1.0 1.0 1.0 1.0 1.0 1.0 1.0
1.0 1.0 1.0 1.0 1.0 1.0 1.0 1.0
1.0 1.0 1.0 1.0 1.0 1.0 1.0 1.0
1.0 1.0 1.0 1.0 1.0 1.0 1.0 1.0
1.0 1.0 1.0 1.0 1.0 1.0 1.0 1.0
1.0 1.0 1.0 1.0 1.0 1.0 1.0 1.0
00000000: 0000 803f 0000 803f 0000 803f 0000 803f
00000010: 0000 803f 0000 803f 0000 803f 0000 803f
00000020: 0000 803f 0000 803f 0000 803f 0000 803f
00000030: 0000 803f 0000 803f 0000 803f 0000 803f
00000040: 0000 803f 0000 803f 0000 803f 0000 803f
00000050: 0000 803f 0000 803f 0000 803f 0000 803f
00000060: 0000 803f 0000 803f 0000 803f 0000 803f
00000070: 0000 803f 0000 803f 0000 803f 0000 803f
00000080: 0000 803f 0000 803f 0000 803f 0000 803f
00000090: 0000 803f 0000 803f 0000 803f 0000 803f
000000a0: 0000 803f 0000 803f 0000 803f 0000 803f
000000b0: 0000 803f 0000 803f 0000 803f 0000 803f
000000c0: 0000 803f 0000 803f 0000 803f 0000 803f
000000d0: 0000 803f 0000 803f 0000 803f 0000 803f
000000e0: 0000 803f 0000 803f 0000 803f 0000 803f
000000f0: 0000 803f 0000 803f 0000 803f 0000 803f

bn2.bias f4 [64]
0.0 0.0 0.0 0.0 0.0 0.0 0.0 0.0
0.0 0.0 0.0 0.0 0.0 0.0 0.0 0.0
0.0 0.0 0.0 0.0 0.0 0.0 0.0 0.0
0.0 0.0 0.0 0.0 0.0 0.0 0.0 0.0
0.0 0.0 0.0 0.0 0.0 0.0 0.0 0.0
0.0 0.0 0.0 0.0 0.0 0.0 0.0 0.0
0.0 0.0 0.0 0.0 0.0 0.0 0.0 0.0
0.0 0.0 0.0 0.0 0.0 0.0 0.0 0.0
00000000: 0000 0000 0000 0000 0000 0000 0000 0000
00000010: 0000 0000 0000 0000 0000 0000 0000 0000
00000020: 0000 0000 0000 0000 0000 0000 0000 0000
00000030: 0000 0000 0000 0000 0000 0000 0000 0000
00000040: 0000 0000 0000 0000 0000 0000 0000 0000
00000050: 0000 0000 0000 0000 0000 0000 0000 0000
00000060: 0000 0000 0000 0000 0000 0000 0000 0000
00000070: 0000 0000 0000 0000 0000 0000 0000 0000
00000080: 0000 0000 0000 0000 0000 0000 0000 0000
00000090: 0000 0000 0000 0000 0000 0000 0000 0000
000000a0: 0000 0000 0000 0000 0000 0000 0000 0000
000000b0: 0000 0000 0000 0000 0000 0000 0000 0000
000000c0: 0000 0000 0000 0000 0000 0000 0000 0000
000000d0: 0000 0000 0000 0000 0000 0000 0000 0000
000000e0: 0000 0000 0000 0000 0000 0000 0000 0000
000000f0: 0000 0000 0000 0000 0000 0000 0000 0000

bn2.running_mean f4 [64]
-0.5767146 0.10290865 0.44879058 -0.064769715 0.91593 0.57020134 0.7258477 -0.15700983
-0.24945079 -0.043839883 0.2338069 0.30523545 0.37242848 0.26338488 -0.4314314 -0.36115137
-0.05825486 0.27754837 -0.23014003 0.16235618 0.4450567 -0.18662252 0.44996405 0.15400279
0.34379652 0.09841471 -0.35131058 0.008655016 0.09365012 0.6494569 0.20842898 -0.12223882
0.6284675 -0.16131419 0.46698576 0.14490943 -0.099838994 0.049138486 0.8067487 -0.21854155
0.5225721 0.6011485 0.24826208 0.3385178 0.46385518 0.5105168 0.64761674 -0.4836065
0.14452745 -0.36327776 -0.06892993 -0.17823681 0.68843657 0.5205005 -0.39685857 -0.14505014
0.18989372 -0.3648896 -0.21768019 0.16254056 0.4494857 0.24376248 -0.4993581 -0.5988758
00000000: 91a3 13bf c5c1 d23d e1c7 e53e fca5 84bd
00000010: 637a 6a3f b7f8 113f 28d1 393f 2fc7 20be
00000020: 0770 7fbe 7391 33bd 136b 6f3e d247 9c3e
00000030: f2ae be3e 62da 863e 94e4 dcbe d5e8 b8be
00000040: a69c 6ebd d21a 8e3e d4a9 6bbe b340 263e
00000050: 79de e33e f919 3fbe b061 e63e e8b2 1d3e
00000060: 1906 b03e a78d c93d fbde b3be c5cd 0d3c
00000070: a2cb bf3d cf42 263f 686e 553e 5958 fabd
00000080: 3fe3 203f 8c2f 25be c218 ef3e 2363 143e
00000090: 6378 ccbd 7045 493d 1587 4e3f 5bc9 5fbe
000000a0: 49c7 053f dee4 193f 6a38 7e3e 3552 ad3e
000000b0: 6d7e ed3e 3bb1 023f 36ca 253f 459b f7be
000000c0: 01ff 133e 8bff b9be 232b 8dbd b683 36be
000000d0: 613d 303f 853f 053f 0c31 cbbe 0688 14be
000000e0: 8073 423e cfd2 babe 8ee7 5ebe 0871 263e
000000f0: fd22 e63e df9c 793e ddab ffbe ed4f 19bf

bn2.running_var f4 [64]
0.3251415 0.113552436 0.83732104 0.45041636 0.5209421 0.12303601 0.3999627 0.25586906
0.14043123 0.33771184 0.63261414 0.20571645 0.18359265 0.79524326 0.086666115 0.15161957
0.4191858 0.15775786 0.08034458 0.13029644 1.0986458 0.106152736 0.06273159 0.22393404
0.1552879 0.26232108 0.8489619 0.77546036 0.5155156 0.1792393 0.31317702 0.101733126
0.13283287 0.221597 0.18416955 0.1520508 0.45541573 0.10472721 1.5321784 0.08954386
0.1505349 0.20048805 0.07223307 0.18769293 0.2417435 0.48036817 1.0185397 0.2408551
0.09268234 0.28945374 0.25660726 0.42945483 0.5605708 0.5648742 0.20403078 0.20824791
0.18271466 0.21134558 1.0979543 0.16899511 0.28179502 0.15963982 0.20005393 0.37565506
00000000: f278 a63e 2e8e e83d ac5a 563f f99c e63e
00000010: 765c 053f 4efa fb3d e9c7 cc3e 4501 833e
00000020: 34cd 0f3e 91e8 ac3e 00f3 213f 55a7 523e
00000030: b6ff 3b3e 1095 4b3f 017e b13d 2942 1b3e
00000040: 859f d63e 478b 213e b38b a43d 6e6c 053e
00000050: 6da0 8c3f 9b66 d93d 6b79 803d f74e 653e
00000060: cb03 1f3e f34e 863e 9155 593f 9284 463f
00000070: d5f8 033f 828a 373e bd58 a03e 7559 d03d
00000080: 5705 083e 53ea 623e f196 3c3e 34b3 1b3e
00000090: 402c e93e 387b d63d 6c1e c43f c562 b73d
000000a0: d225 1a3e bd4c 4d3e efee 933d 9332 403e
000000b0: 9c8b 773e d1f2 f53e 825f 823f b8a2 763e
000000c0: 3dd0 bd3d 4833 943e 0762 833e 81e1 db3e
000000d0: 9181 0f3f 989b 103f 72ed 503e f13e 553e
000000e0: 8d19 3b3e fa6a 583e c489 8c3f 0e0d 2d3e
000000f0: 7047 903e 9f78 233e f0da 4c3e dc55 c03e

output.weight f4 [1, 64, 3, 3]
0.06320034 -0.05613789 0.06662057 -0.06018918 0.032325298 -0.06832068 -0.007145256 0.099203065
0.016320333 0.07021557 -0.02248419 0.07904929 0.07953036 0.088143215 -0.014004149 0.022834979
0.08281481 -0.08019054 0.055509657 -0.041395344 0.04683329 0.014901869 0.059070885 0.09861678
0.05599226 -0.06457017 -0.07480818 -0.080235 0.038781226 0.08885951 -0.08022124 0.08913241
0.022603907 0.014134757 0.04336518 0.09096341 -0.09313153 -0.00967674 0.0017938837 -0.039831165
-0.062344283 -0.074343316 0.03371495 0.005032532 0.08574426 0.07585539 -0.008904472 -0.045516368
0.08360027 -0.05787169 -0.006860137 0.042005822 0.09514058 -0.05659685 0.10002388 -0.06510815
0.056502 -0.04600319 0.039732844 0.0150815025 0.005508609 -0.009198867 0.023004651 0.05907975
0.017766058 -0.07511538 -0.09658355 -0.08466672 -0.09016442 -0.005096242 0.078188896 0.083385974
0.025088802 0.072051555 0.04541689 0.0062387288 0.0024527833 0.061693594 -0.055357866 0.09912163
0.015300423 0.098760545 0.084072545 -0.05265768 0.09352803 -0.038130306 0.08933167 -0.072722346
0.062118948 0.0013954937 0.049587622 0.087710544 -0.0429897 -0.09661333 0.061265007 -0.058765486
0.010912478 -0.031038925 0.02502872 -0.09284764 -0.02631192 0.08211821 -0.081207216 0.065756544
-0.01145871 0.061949864 -0.07064436 -0.06388584 0.094648 -0.09128776 -0.04378585 -0.016274817
-0.07902058 0.09765799 -0.03427417 -0.051441427 -0.021649756 -0.08624237 0.0112608895 0.08265364
0.04162045 -0.05038093 -0.08151245 -0.0735121 0.10057674 -0.085122675 0.011388458 -0.05511174
0.074511364 -0.07443416 0.037645712 0.03173621 -0.046263214 0.012353897 -0.028503492 -0.086717285
-0.09726821 0.036297902 0.035721704 0.026080102 -0.062237065 0.06975502 0.058670342 0.09556164
0.088116854 0.062968984 -0.03328894 0.08813606 -0.05814603 -0.09806224 -0.06671631 0.035146326
0.09202075 -0.011383139 -0.05240229 0.08014014 -0.029331133 0.04035537 -0.061931938 0.029940069
-0.04676422 -0.0809408 0.022259757 -0.0643685 0.04564634 -0.0651011 0.005295463 0.039727375
0.02131848 0.092248514 0.022503473 -0.047083765 0.060235173 0.017204925 0.07182433 0.074443355
-0.05192761 0.06490862 0.05261174 -0.0024223924 -0.032217674 0.069351465 -0.06036465 0.07405819
-0.08370119 -0.011781938 -0.02417308 -0.08650203 0.013256252 0.08997153 -0.041774716 0.0808181
-0.07206671 0.062398463 0.07714772 0.05284153 0.0029329732 -0.015452139 -0.022757083 -0.038502254
-0.028233439 0.069216385 -0.07369487 -0.09262556 -0.06322768 0.07243632 -0.09852943 0.015491523
0.08099577 -0.006819561 -0.017264195 -0.028003186 -0.0076197535 0.04031433 -0.024327286 -0.07980023
0.011183523 0.027565673 -0.06808275 0.0304797 -0.094573565 -0.07916853 -0.06311521 0.034097448
0.085880935 0.052544236 0.07751307 -0.05612106 0.09734839 -0.04246778 -0.035326242 -0.0061211362
-0.053343315 -0.04177305 0.10069612 0.034191534 -0.08436373 0.08508031 0.076695174 0.07087912
0.04579097 -0.033503063 -0.01632312 -0.03492696 0.0108514875 -0.07496282 0.068819135 -0.00041965395
0.017578758 -0.013920344 -0.07880619 -0.06813978 -0.098780096 -0.016015314 0.034644797 0.029508412
00000000: 2e6f 813d d8f0 65bd 5e70 883d ee88 76bd
00000010: 8867 043d b6eb 8bbd c022 eabb fa2a cb3d
00000020: 38b2 853c 2ecd 8f3d c430 b8bc 98e4 a13d
00000030: d0e0 a23d 6e84 b43d a871 65bc 6c10 bb3c
00000040: d09a a93d f03a a4bd 185e 633d 2a8e 29bd
00000050: 44d4 3f3d f826 743c 50f4 713d 98f7 c93d
00000060: 2458 653d 5e3d 84bd 0835 99bd 3f52 a4bd
00000070: 10d9 1e3d fafb b53d 094b a4bd 0e8b b63d
00000080: d42b b93c 7895 673c b09f 313d 064b ba3d
00000090: bebb bebd 308b 1ebc c020 eb3a 0126 23bd
000000a0: b85c 7fbd 4f41 98bd b018 0a3d f0e7 a43b
000000b0: b09a af3d 125a 9b3d 10e4 11bc 5f6f 3abd
000000c0: 9e36 ab3d dd0a 6dbd 00cb e0bb 4c0e 2c3d
000000d0: 10d9 c23d 19d2 67bd 52d9 cc3d 6c57 85bd
000000e0: a46e 673d d76d 3cbd e8be 223d 6818 773c
000000f0: 9081 b43b d8b6 16bc 4074 bc3c 9cfd 713d
00000100: 208a 913c 18d6 99bd 99cd c5bd bf65 adbd
00000110: 20a8 b8bd 60fe a6bb 8021 a03d 44c6 aa3d
00000120: 0887 cd3c c48f 933d 1007 3a3d 406e cc3b
00000130: e0be 203b 6cb2 7c3d eebe 62bd 4800 cb3d
00000140: a0ae 7a3c f842 ca3d 3a2e ac3d 94af 57bd
00000150: a08b bf3d 862e 1cbd 86f3 b63d 74ef 94bd
00000160: 7070 7e3d 00e9 b63a 641c 4b3d 96a1 b33d
00000170: f815 30bd 36dd c5bd 04f1 7a3d 14b4 70bd
00000180: 40ca 323c 5845 febc 0809 cd3c e726 bebd
00000190: 188c d7bc 982d a83d f84f a6bd 5eab 863d
000001a0: 50bd 3bbc 24bf 7d3d fdad 90bd 94d6 82bd
000001b0: d0d6 c13d 14f5 babd cb58 33bd c452 85bc
000001c0: 8bd5 a1bd ea00 c83d 1263 0cbd 3fb4 52bd
000001d0: d45a b1bc d79f b0bd 987f 383c 5046 a93d
000001e0: 347a 2a3d 3c5c 4ebd 00f0 a6bd 838d 96bd
000001f0: 2efb cd3d cc54 aebd a896 3a3c d9bc 61bd
00000200: 6a99 983d f070 98bd 6432 1a3d d4fd 013d
00000210: 7f7e 3dbd 0068 4a3c 2880 e9bc d598 b1bd
00000220: 8e34 c7bd 1cad 143d ec50 123d f0a5 d53c
00000230: 4bec 7ebd b8db 8e3d 5050 703d d2b5 c33d
00000240: 9c76 b43d e2f5 803d fc59 08bd ae80 b43d
00000250: 882a 6ebd dbd4 c8bd 90a2 88bd 98f5 0f3d
00000260: 6075 bc3d 5880 3abc c9a3 56bd 8420 a43d
00000270: d847 f0bc ac4b 253d 58ac 7dbd e044 f53c
00000280: d78b 3fbd 4ac4 a5bd 185a b63c a2d3 83bd
00000290: a8f7 3a3d ba53 85bd 9085 ad3b 2cb9 223d
000002a0: 18a4 ae3c caec bc3d 3459 b83c e8da 40bd
000002b0: 28b9 763d 58f1 8c3c a218 933d c275 983d
000002c0: 0cb2 54bd d0ee 843d 687f 573d 00c1 1ebb
000002d0: aef6 03bd 2408 8e3d ec40 77bd d2ab 973d
000002e0: 886b abbd 0809 41bc a006 c6bc fa27 b1bd
000002f0: c030 593c fe42 b83d f71b 2bbd f683 a53d
00000300: b697 93bd 8895 7f3d a0ff 9d3d 5c70 583d
00000310: 2037 403b f82a 7dbc 106d babc 8ab4 1dbd
00000320: d049 e7bc 52c1 8d3d 56ed 96bd 78b2 bdbd
00000330: 847d 81bd 7e59 943d ccc9 c9bd 28d0 7d3c
00000340: 1ce1 a53d a076 dfbb a46d 8dbc f066 e5bc
00000350: 20af f9bb a420 253d 044a c7bc 4e6e a3bd
00000360: 183b 373c 68d1 e13c f86e 8bbd 90b0 f93c
00000370: c9af c1bd 1c23 a2bd 8c42 81bd c4a9 0b3d
00000380: 58e2 af3d a038 573d 2cbf 9e3d 32df 65bd
00000390: 985e c73d b2f2 2dbd 40b2 10bd d093 c8bb
000003a0: 857e 5abd 381a 2bbd c439 ce3d 6c0c 0c3d
000003b0: e4c6 acbd 963e ae3d 5c12 9d3d 1229 913d
000003c0: 508f 3b3d 823a 09bd 10b8 85bc 920f 0fbd
000003d0: 70ca 313c 1b86 99bd 0cf1 8c3d 0005 dcb9
000003e0: 5401 903c 2812 64bc 2465 a1bd de8c 8bbd
000003f0: 384d cabd 8c32 83bc b4e7 0d3d a0bb f13c

low_freq.weight f4 [1, 1, 7, 7]
-0.0052158087 -0.15329689 -0.19601278 -0.20561117 0.023237094 0.1675389 0.021599874 -0.14989379
0.21995287 0.2305065 -0.17207009 -0.2011865 -0.2101843 0.0668564 0.14198343 0.05353181
-0.024592713 0.12506203 0.22734602 0.20538147 0.2155522 -0.14460507 0.19217886 0.06967537
-0.1620135 0.1638576 -0.21569256 -0.058592558 -0.24469738 0.025801554 0.120214835 -0.23123243
-0.04034561 -0.23670518 0.07728325 0.10737483 0.17156927 -0.1969244 0.16599827 0.07210298
0.07284917 -0.13070281 0.14399661 -0.09677717 -0.034815863 -0.01421918 -0.09612958 0.019701079
0.03642358
00000000: 60e9 aabb dcf9 1cbe 93b7 48be bc8b 52be
00000010: b85b be3c 518f 2b3e 38f2 b03c c27d 19be
00000020: 533b 613e e509 6c3e 2433 30be d503 4ebe
00000030: 8e3a 57be 02ec 883d 1b64 113e 2c44 5b3d
00000040: a876 c9bc 4310 003e 65cd 683e 854f 523e
00000050: b7b9 5c3e 5a13 14be 89ca 443e f6b1 8e3d
00000060: dee6 25be 49ca 273e 83de 5cbe c0fe 6fbd
00000070: f391 7abe c85d d33c 3233 f63d 32c8 6cbe
00000080: 7041 25bd d862 72be ae46 9e3d 56e7 db3d
00000090: dbaf 2f3e 8da6 49be 73fb 293e baaa 933d
000000a0: f231 953d f5d6 05be d973 133e 1c33 c6bd
000000b0: 149b 0ebd 90f7 68bc 96df c4bd 2864 a13c
000000c0: e430 153d

denoise.0.weight f4 [1, 1, 3, 3]
0.17102021 0.13582742 0.21515572 0.29498094 0.42143792 0.07476026 -0.0083786845 0.23343945
-0.27962732
00000000: ec1f 2f3e 5816 0b3e c851 5c3e be07 973e
00000010: b6c6 d73e e81b 993d c046 09bc c00a 6f3e
00000020: 502b 8fbe

denoise.1.weight f4 [1, 1, 3, 3]
0.40231693 0.22390991 -0.0042215586 -0.096972674 -0.14467186 -0.1005505 -0.16095906 -0.47466898
-0.24406153
00000000: 7cfc cd3e a448 653e 0055 8abb 9c99 c6bd
00000010: dc24 14be 6ced cdbd 74d2 24be d007 f3be
00000020: 44eb 79be
